checkpoints/dinov3/best_dinov3_classifier_reduced.pth (torch, 97679 bytes, 6 tensors)

weight f4 [10, 768]
000000 58 62 d9 3d d1 da 5d 3d a0 98 45 3d 8d 46 86 bd
       0.10614461 0.054163758 0.048241258 -0.06556425
000010 77 7f 47 3e a3 28 cb bc 2b 1d ad bc 67 55 9c 3d
       0.19482218 -0.02479965 -0.021132072 0.07633477
000020 c2 3b 96 3d 4e 11 08 3c 7f 79 eb bd aa 75 a7 bd
       0.07335617 0.008304907 -0.11497783 -0.081767395
000030 e0 da 2d 3e 71 ed 99 bd ca 4b 47 3d a9 14 14 bd
       0.16978025 -0.075159915 0.048656262 -0.036152516
000040 21 10 3d bd 45 1f fc 3c 0b 91 33 3b 12 51 4b be
       -0.04615796 0.03077663 0.0027399685 -0.19855145
000050 ee bd f2 3d e0 63 94 bd 7b 9b 79 be 08 26 38 3d
       0.118526325 -0.07245612 -0.24375717 0.044958144
000060 a8 51 97 bc 45 21 61 bc 8f fd 39 3e ad 5c d1 bc
       -0.018471554 -0.013740842 0.18163131 -0.025556887
000070 cc f9 81 3e 0f b5 68 bd bb 66 bc bd 9a ca 59 bc
       0.25385892 -0.056813296 -0.09199282 -0.013292933
000080 2c 56 fa 3a 83 66 19 3e dc 3a b1 3d 84 0b d6 3d
       0.0019099168 0.14980511 0.08653805 0.10451415
000090 e9 07 47 bd 77 63 a5 3d 12 7a 1f 3a c8 24 bb 3c
       -0.048591528 0.08075612 0.00060835585 0.022844687
0000a0 da f4 bd 3d 49 8d 09 be 10 df 34 3d ba 33 8e bd
       0.09275217 -0.13432802 0.04415804 -0.0694346
0000b0 01 6e 14 bc a4 89 98 bd d3 c2 06 bd 2e ce 09 bd
       -0.00905943 -0.07448128 -0.032900643 -0.033643894
0000c0 a5 1e 93 bd 38 b4 fe bc ba 7f 2c bc 65 cf c8 bd
       -0.07183579 -0.031091794 -0.010528499 -0.09805182
0000d0 c5 f5 d8 bc e8 88 75 3d fa cb 6a 3b eb 59 33 3d
       -0.02648438 0.059945017 0.0035827146 0.043786924
0000e0 f0 c6 d7 3d ee fa 53 3d 8f bb a7 3b 86 58 48 bd
       0.10535991 0.051752977 0.0051187943 -0.048912548
0000f0 91 fc a8 bd 3d 93 8f bd df 09 2a bc c7 be 50 3d
       -0.08251298 -0.07010505 -0.01037833 0.05096319
000100 b4 37 bf 3d 51 cc f1 3d fa ed 30 3e 0f 95 08 3e
       0.093367964 0.118065484 0.17278281 0.13338111
000110 b1 68 86 3d 8e e5 0b be c9 56 63 3d d1 9f 17 3e
       0.06562937 -0.13661787 0.055502687 0.14807059
000120 30 3d 7b 3c 1a 3e 83 3d 7e 8c 63 3d e4 66 58 bc
       0.015334412 0.06408329 0.055553906 -0.013208125
000130 b6 a6 4b bc ec 40 5b be 7d 64 ea 3c 46 ca f3 bc
       -0.012429884 -0.21411484 0.02861237 -0.029759537
000140 d0 3d 1b 3d a1 31 16 be 36 03 c0 3d 29 6a 6f bd
       0.037900746 -0.1466737 0.093756124 -0.05845085
000150 3b 02 93 bd f3 cd 97 bd 6c 17 51 3d 9c d0 4e 3d
       -0.0717816 -0.074123286 0.051047727 0.050491914
000160 10 74 54 3d 25 45 a0 3d f6 b9 0b 3e d0 43 0e 3e
       0.0518685 0.07825688 0.13645157 0.13893056
000170 60 a7 e1 bd 03 64 dc bd 38 2f db bd 21 52 11 bc
       -0.110182524 -0.10761263 -0.10702366 -0.008869679
000180 0b c8 84 bc 8d 2d c9 3d 01 7a 3e be 62 b0 da bd
       -0.01620867 0.09823141 -0.18601228 -0.106781736
000190 cf 49 62 bb 72 49 43 bd 90 ea f9 bd c4 60 4c 3c
       -0.0034528857 -0.047677465 -0.12202942 0.012474243
0001a0 13 d8 97 3d f1 a9 04 3d 1b a3 02 3c 1c d1 71 bd
       0.0741426 0.03238863 0.007973458 -0.059037313
0001b0 f6 a0 f0 bd f8 4c 7b 3d 8b 84 82 bc c2 c2 12 bd
       -0.11749451 0.0613527 -0.015932342 -0.035830267
0001c0 c4 80 3c be 77 d5 0c 3c 41 6d 6a 3d ad eb 04 3e
       -0.18408495 0.008595816 0.0572331 0.12980528
0001d0 94 05 33 bd 8e a5 fe bd ca 4e 55 3e c3 fa 6a bd
       -0.04370649 -0.12433921 0.20830837 -0.05736805
0001e0 ee 80 b0 bd 59 0b 0f be df c3 b6 bd f6 b9 19 bc
       -0.086183414 -0.13969173 -0.08924078 -0.009382715
0001f0 1d a7 4d 3e ec 77 4b 3e 24 05 a9 3d b8 0d 68 bd
       0.2008328 0.19869965 0.082529336 -0.05665371
000200 59 ba a8 bd 54 8b dd 3d 9b 00 38 bd 23 8b 5a bd
       -0.08238668 0.1081759 -0.044922452 -0.053355347
000210 97 3d bc 3d 0a b0 5e 3c 4a 46 16 3d ad 74 70 3d
       0.09191435 0.013591776 0.036688127 0.05870502
000220 df 36 24 3d ef c2 00 be fb ea 08 3e 8c e7 66 3c
       0.04009139 -0.12574361 0.13370888 0.014093291
000230 d8 21 34 be 3b 72 c8 bd c0 27 65 bb 74 c0 d6 39
       -0.17591035 -0.09787413 -0.003496632 0.0004096065
000240 83 62 b3 3d 5b 7b 77 bd de c3 8f 3d f1 65 fa bc
       0.08759024 -0.060420375 0.070197806 -0.030566188
000250 5e f1 24 be 0f 77 44 be 83 e2 6f bd 45 2d b7 3d
       -0.161077 -0.19186042 -0.058565628 0.08944181
000260 15 44 33 bc c2 71 96 3d 00 e0 30 bd 39 ee 7f be
       -0.010941525 0.07345916 -0.043182373 -0.24993218
000270 5a 5d 05 be 18 75 b5 bd 98 87 82 be 18 2d 0b 3e
       -0.13023892 -0.088602245 -0.25494075 0.1359142
000280 83 62 02 3e a3 e9 20 be 1c e3 8e 3d b5 f0 82 3c
       0.12732892 -0.15714125 0.069769114 0.015983919
000290 c9 1e 41 3e bd fe a8 bd 1b 48 73 3e 2a 49 80 3d
       0.188594 -0.082517125 0.23757975 0.06263955
0002a0 8b 0b 80 3b 86 b5 68 3c 40 ba 8c 3d ee 48 02 3d
       0.003907626 0.014203435 0.06871462 0.031807832
0002b0 38 19 6b 3d f4 16 26 3b 25 e3 8f 3d 45 12 f9 bc
       0.057397097 0.002534327 0.07025746 -0.03040422
0002c0 17 77 82 3d 58 84 99 bd d9 fd 62 3d e3 31 c0 3d
       0.06370371 -0.07495946 0.05541787 0.09384515
0002d0 a4 2e 0e be e0 d6 63 3d 91 92 c0 3d 5b ca fc 3c
       -0.1388498 0.055624843 0.09402955 0.03085821
0002e0 1a 9e 64 3d 2f d1 c0 bc c6 56 1f 3e 15 b3 96 3d
       0.05581484 -0.023537247 0.15560445 0.07358376
0002f0 da 84 b7 3d 76 70 a3 3d 96 66 b1 3d 02 30 1f 3d
       0.08960886 0.079804346 0.08662145 0.038864143
000300 ec 47 91 3d ee 8c 75 bc de 37 b8 bc fc 23 69 3b
       0.07093796 -0.014987214 -0.022487577 0.0035574427
000310 77 ab dc ba c5 39 39 bd b6 e2 49 bd 81 d2 8f 3d
       -0.0016835768 -0.04522111 -0.049288474 0.07022572
000320 b5 87 e2 3c d6 20 49 be 84 ae 11 be c3 2d 53 3e
       0.0276526 -0.19641432 -0.14226729 0.20622925
000330 1a f9 09 be 8c 6a 4b 3e 5c e4 03 3e 16 65 3d 3d
       -0.13473931 0.19864863 0.12880081 0.04623898
000340 c4 46 0a 3c 84 52 a6 3d dd bf d9 bd f2 07 60 3d
       0.008439723 0.08121207 -0.10632298 0.054695077
000350 6d 94 a6 bd d2 5d d1 bd 69 d8 24 be 3f 35 2b 3d
       -0.08133779 -0.10222973 -0.16098179 0.041798826
000360 63 9c e8 3c 6d 48 c2 3d ba e1 e1 bc 4a f1 b3 3d
       0.028394883 0.0948647 -0.027573455 0.087862566
000370 1d 5a 84 bd 4d d9 68 3d c4 70 b9 bd 9b 43 45 3d
       -0.064625 0.05684786 -0.090547115 0.048160177
000380 dd 6e 19 3d 3c 24 9e bd 30 9c b0 bd 06 9f d6 bb
       0.037459243 -0.07721755 -0.086235404 -0.006549719
000390 54 39 33 bd e7 a7 5d 3c e3 7d 4d bd 13 39 46 3e
       -0.043755844 0.013528801 -0.050168883 0.1935771
0003a0 5d ca af 3c 1c 06 ee bd 79 da b9 bd e7 b2 58 bd
       0.021458799 -0.11622259 -0.090748735 -0.05290499
0003b0 d6 58 6c bd b8 44 02 3e 6b 20 b2 bc 95 9d 45 bd
       -0.057701908 0.12721527 -0.021743974 -0.048245985
0003c0 16 02 7a 3d 18 65 7a 3d 58 b6 0a 3d e0 0f 0b bd
       0.061037146 0.061131567 0.033865303 -0.033950686
0003d0 5e 7d ab bd 92 b8 dc 3c f2 46 f6 3a e4 22 e3 bc
       -0.08373521 0.026943479 0.0018789454 -0.027726598
0003e0 f5 43 76 bc 50 24 28 bd 69 2a 5b bd 70 5d b9 3c
       -0.015030851 -0.041050255 -0.053507242 0.022627562
0003f0 66 b5 1b 3e 37 11 3d 37 71 c0 de bb 10 40 0c 3e
       0.15205917 1.1269286e-05 -0.006797843 0.13696313

bias f4 [10]
000000 99 ef 04 3d 82 1c 77 3e 3f 3a 8d 3d d8 8e 3e 3e
       0.03245506 0.24131969 0.06895875 0.18609178
000010 fc 3e 04 3e 3b 83 72 be 92 59 32 bd e4 71 8c be
       0.12914652 -0.23682873 -0.043542452 -0.27430642
000020 47 cc 6b be 73 fe b3 be
       -0.23027144 -0.35155067

exp_avg f4 [10, 768]
000000 0a 26 61 3a 8b 0c 59 3a 3c 6c 96 b9 0b 9c 86 3b
       0.0008588737 0.0008279762 -0.0002869087 0.0041079572
000010 21 70 f0 ba 11 8d 1c bb 7e d7 88 3b ae 92 bb 3a
       -0.0018343964 -0.0023887793 0.0041760793 0.0014310682
000020 8d 3a df 3a d8 86 e3 3a 78 77 15 ba 12 bb 77 ba
       0.0017030999 0.0017358912 -0.0005701701 -0.0009450178
000030 32 e8 4e bb b9 0c 14 b9 3f f0 4b b9 8f 4f 84 3a
       -0.0031571505 -0.0001411912 -0.00019449087 0.0010094511
000040 5d 95 ff ba 47 3d 02 ba a0 bc f6 3a e9 28 29 ba
       -0.001949947 -0.00049682375 0.0018824525 -0.00064529345
000050 4c 7f ee ba f5 82 90 3b ad 89 a8 3a 22 d9 4b ba
       -0.0018195896 0.0044101425 0.0012858413 -0.0007776191
000060 7d 78 3e 3a d3 9f dd ba 15 42 ff ba 49 df be 3a
       0.0007265879 -0.0016908593 -0.001947465 0.0014562394
000070 7d 2d 93 bb c8 df c6 3a fe f3 73 ba 1c 70 fa ba
       -0.0044915066 0.0015172893 -0.0009306072 -0.0019106898
000080 89 bc 4e 3b 96 30 f7 39 b5 37 96 3a 25 65 0c ba
       0.0031545481 0.0004714771 0.0011460694 -0.0005355648
000090 77 44 84 bb a8 bc 92 3a 8a e6 0e bb 55 8a 61 3a
       -0.004036482 0.001119514 -0.0021804892 0.0008603682
0000a0 74 e5 c7 3a 83 7d 13 ba 4e 99 46 3b 44 5d 1d 3b
       0.0015250877 -0.00056263077 0.003030378 0.002401189
0000b0 38 50 6f 3b e3 45 08 3b a9 bc 89 38 dd 55 d4 ba
       0.003651632 0.002079361 6.56781e-05 -0.0016199906
0000c0 ce 9b 5e 3a fc e7 77 3a 1d 5e 94 3a 9a 6b 18 3b
       0.00084918446 0.00094568706 0.0011319552 0.0023257495
0000d0 e7 2b 08 3b 32 94 79 b7 7d 6f 65 39 fb 5a 5c bb
       0.002077812 -1.4876061e-05 0.00021880674 -0.0033623565
0000e0 b8 73 5c 3a 12 0b 85 bb 54 78 e5 b8 a6 e5 3c bb
       0.00084095774 -0.0040601576 -0.00010941984 -0.0028823405
0000f0 8b a3 95 b8 a2 b0 e5 39 ed 5a 47 ba ff c9 4f b9
       -7.135336e-05 0.00043809885 -0.00076047966 -0.00019816308
000100 35 09 55 3a 0f e8 2c ba ab ec 57 ba 48 9f 37 3b
       0.0008126677 -0.0006595859 -0.00082368654 0.0028018523
000110 a7 f9 0d ba f0 df 23 3b 4e d0 ba ba 4a 0b 72 ba
       -0.0005415924 0.0025005303 -0.0014252753 -0.00092332496
000120 4c db 31 3a 75 02 59 ba 80 ff 11 3b a9 1d c9 b9
       0.0006784692 -0.0008278259 0.0022277534 -0.00038359806
000130 da eb 2d 3b ac aa 13 3b 05 d0 17 ba e6 bd 15 3b
       0.0026538284 0.0022532148 -0.000579119 0.0022848784
000140 23 af 90 3a 91 60 98 3b c8 1c fe ba 69 28 98 ba
       0.0011038523 0.0046501835 -0.001938724 -0.0011608723
000150 d1 9d d2 b9 84 ae 34 ba d8 e0 a4 3a ff 9c 1a 3a
       -0.00040171904 -0.000689246 0.0012579216 0.0005898028
000160 8a eb 09 bb b0 32 0a 3a 90 c4 de ba 1b 08 94 bb
       -0.0021044933 0.0005271835 -0.0016995836 -0.004517568
000170 c4 2d 7a ba 85 2f d9 3a ce ee dd b8 c0 61 12 3a
       -0.0009543563 0.0016569948 -0.00010582582 0.0005584024
000180 8b aa 19 3b b6 d2 e5 3a b1 9c ec 38 14 8f 3a bb
       0.0023447599 0.001753411 0.00011282543 -0.002846663
000190 bd 41 98 39 ae 7b a2 38 9d 29 02 3b 4c af a6 ba
       0.00029040678 7.747799e-05 0.001986123 -0.0012717037
0001a0 ed c0 bb ba 49 f3 1d bb 51 24 8b 3a fb 5e 15 3a
       -0.0014324464 -0.0024101308 0.0010615682 0.0005698052
0001b0 a4 f2 5f ba a2 48 e0 39 e3 4e a1 ba 56 23 b3 37
       -0.0008542931 0.00042778725 -0.0012306835 2.1354917e-05
0001c0 f0 86 b3 38 5c 8c df b8 c5 d2 86 ba 5e 00 06 3b
       8.560519e-05 -0.000106596126 -0.0010286203 0.0020446996
0001d0 6d 34 f5 b9 05 23 05 ba bc a9 19 bb da d2 c6 3a
       -0.00046769102 -0.00050787657 -0.0023447117 0.001516904
0001e0 01 00 ab ba 18 13 51 ba 23 72 11 3b 7f 31 37 bb
       -0.0013046266 -0.00079755625 0.0022193275 -0.0027953086
0001f0 b3 14 3f bb 64 0f 9c ba a3 95 49 3b 05 6e 12 3a
       -0.0029156625 -0.0011906442 0.0030759356 0.0005585852
000200 0b 52 23 3b 04 fd 3d ba 89 79 19 bb 00 3f 60 3a
       0.0024920728 -0.000724748 -0.0023418388 0.00085543096
000210 99 41 3b 3a b6 63 fb ba 5c 04 59 ba 5d 16 d6 ba
       0.00071432587 -0.0019179496 -0.00082785427 -0.0016333569
000220 c6 44 19 3b e6 0f 3f 3b d3 43 f9 3a 6e cf 8d 3b
       0.002338694 0.0029153763 0.0019017406 0.004327706
000230 c0 3b 38 3a 69 42 3a bb 0d b8 da b9 95 3c 7a ba
       0.00070279464 -0.0028420931 -0.0004171733 -0.00095457706
000240 d8 93 32 ba 13 44 b7 3a d7 21 ec 3a 50 1b 4a ba
       -0.00068121916 0.001398208 0.0018015456 -0.00077097584
000250 df 3e 0f 3b 49 53 48 b8 d7 7d 86 3a 3e fb d4 b9
       0.0021857542 -4.776128e-05 0.0010260892 -0.0004062298
000260 6f f7 cd ba da 6c e7 ba 92 cf 80 3b 61 d4 77 3a
       -0.0015714 -0.0017656342 0.0039309943 0.0009453949
000270 e7 51 1b 3a 40 09 9a 39 af da 2c 37 71 64 c9 3b
       0.0005924985 0.0002938006 1.0302915e-05 0.0061460068
000280 04 ca 4e 3b 32 f4 ab 3a dc 71 3a 3b 8c 79 5b ba
       0.0031553516 0.001311904 0.0028449213 -0.0008372299
000290 cf d8 68 3a 66 9f 45 bb 35 9e de 38 79 bf 63 39
       0.00088824047 -0.0030154823 0.00010615253 0.00021719736
0002a0 d4 cd 44 3b 3b 3c 86 bb 75 44 bc 3a ee 22 b7 b9
       0.003002991 -0.0040965355 0.0014363664 -0.00034930505
0002b0 1b ec 24 bb 30 4a 77 bb ec f6 fd 3a b8 86 77 ba
       -0.0025165144 -0.0037733428 0.0019375957 -0.0009442377
0002c0 d5 b9 21 b8 42 60 b8 3b 3b bc 43 3b a0 75 ba ba
       -3.855846e-05 0.005626709 0.0029866833 -0.0014225729
0002d0 e2 54 3d 3a ec 92 5c 39 1e 36 8e 3a cd bd dd 39
       0.00072224264 0.00021035568 0.0010849868 0.00042293817
0002e0 7f a4 6d bb c5 a8 9f bb 0b 3e f5 ba 05 d6 0c 3a
       -0.0036261377 -0.004872414 -0.0018710507 0.00053724676
0002f0 87 48 de ba e1 ca 12 bb 97 85 98 3a be 1a 82 ba
       -0.0016958871 -0.0022398757 0.0011636493 -0.0009926183
000300 31 d9 38 b9 77 94 04 bb bc 56 ee b9 cc bb 75 3a
       -0.00017628518 -0.0020230094 -0.0004545952 0.0009373992
000310 9d e8 c2 3a 6a 6f a6 bb ce 58 c4 b9 74 87 59 3b
       0.001487035 -0.0050791996 -0.00037450198 0.0033192309
000320 41 af dc 39 05 82 d5 b9 02 40 88 3b 27 e9 b2 3b
       0.00042092244 -0.00040723398 0.004158021 0.005459923
000330 98 9a 43 bb 9b 54 4f 3a 99 a9 9f ba 8d 90 a1 ba
       -0.0029846784 0.00079090305 -0.0012181281 -0.0012326405
000340 b9 8a 09 bb df 5c 00 bb 09 18 b1 ba 48 c0 fe ba
       -0.0020987226 -0.0019586605 -0.0013511191 -0.0019435966
000350 2c 4b 8c 3b 65 c7 ef b9 d4 a6 f8 ba 2e 42 d6 3a
       0.004281422 -0.00045734193 -0.0018970617 0.0016346627
000360 55 81 87 3a a2 67 e1 3b f9 f2 8c ba e1 91 97 bb
       0.0010338227 0.006878809 -0.0010753564 -0.0046255444
000370 8a 49 b4 38 ab a6 77 3a 65 d9 92 3b fc a0 12 bb
       8.5967666e-05 0.00094471377 0.004481482 -0.0022373786
000380 74 5c 5a ba 2c 2e 04 bb 08 ea 8e 39 a2 d7 49 ba
       -0.00083298166 -0.0020169122 0.00027258717 -0.00076996733
000390 38 23 60 bb 4c 91 09 bb ff a2 b2 3b 94 8c 1c bb
       -0.003420068 -0.0020991145 0.0054515596 -0.0023887502
0003a0 aa 27 0e bb 5a 61 6a bb 4c 60 4f 39 2f 75 15 3b
       -0.0021691122 -0.0035763592 0.00019776932 0.0022805443
0003b0 ef 20 45 bb 92 e0 39 ba 78 66 83 bb 48 bf cc 39
       -0.0030079444 -0.00070906535 -0.004010018 0.00039052428
0003c0 0e 49 20 3a e6 a6 f0 ba d4 9e 3f 3b 23 12 c3 3a
       0.00061144016 -0.0018360286 0.0029238956 0.0014882724
0003d0 73 37 3e ba c3 60 2b ba 10 01 74 b8 b4 d8 f6 ba
       -0.00072561874 -0.0006537551 -5.8175123e-05 -0.0018832893
0003e0 ca 45 1f 3b 04 2a 0c 3a fe c1 53 ba 55 02 c5 ba
       0.0024303072 0.0005346837 -0.00080779183 -0.0015030602
0003f0 f5 14 05 3a 08 8e ef 39 be e9 00 ba 67 df 32 3b
       0.000507667 0.00045691454 -0.0004917643 0.0027293803

exp_avg_sq f4 [10, 768]
000000 0e 3a 71 38 96 e2 89 38 63 b7 21 38 1f e2 92 38
       5.7512945e-05 6.574874e-05 3.8556183e-05 7.003941e-05
000010 0f a3 01 38 51 70 91 38 0a f2 81 38 02 84 5c 38
       3.0907857e-05 6.935059e-05 6.1962826e-05 5.257503e-05
000020 15 a1 a6 38 ea a2 2b 38 a6 d5 4b 38 96 e8 78 38
       7.945501e-05 4.0921303e-05 4.8597947e-05 5.934442e-05
000030 e9 2d 41 38 5f 60 81 38 2d 21 3f 38 c6 77 51 38
       4.6057543e-05 6.16915e-05 4.5568846e-05 4.994103e-05
000040 56 2e 24 38 d9 f7 45 38 3a 58 10 38 2f 8a 81 38
       3.91438e-05 4.7199286e-05 3.4414443e-05 6.176938e-05
000050 65 c2 1a 38 dd 44 bb 38 32 c3 30 38 46 d4 73 38
       3.6897505e-05 8.929682e-05 4.214346e-05 5.813341e-05
000060 73 9c 24 38 6e 71 2c 38 05 1e 78 38 b4 56 45 38
       3.924635e-05 4.1113635e-05 5.9155765e-05 4.704921e-05
000070 7e 74 53 38 00 b7 33 38 fc 91 24 38 63 c2 6d 38
       5.0414812e-05 4.2847358e-05 3.9236606e-05 5.668624e-05
000080 28 b8 50 38 cf 26 54 38 90 d5 43 38 a9 96 36 38
       4.9762573e-05 5.0580882e-05 4.669052e-05 4.3532495e-05
000090 e2 23 97 38 61 d1 39 38 24 16 35 38 d6 61 2c 38
       7.206925e-05 4.4302436e-05 4.3174383e-05 4.1099112e-05
0000a0 94 bd 4b 38 df b6 9d 37 6f 31 15 38 63 a5 24 38
       4.857553e-05 1.8801014e-05 3.5570407e-05 3.9254675e-05
0000b0 69 cc 73 38 4a f3 68 38 2a c8 7d 38 01 ee 39 38
       5.8126087e-05 5.553969e-05 6.0506318e-05 4.4329096e-05
0000c0 8a cf 17 38 e7 b3 81 38 be c6 43 38 6d bd ac 38
       3.619449e-05 6.184709e-05 4.6676716e-05 8.2368824e-05
0000d0 d8 e1 64 38 38 ac 7b 38 8b 2d 59 38 80 d2 80 38
       5.456977e-05 6.0003455e-05 5.1779247e-05 6.142724e-05
0000e0 93 40 70 38 a9 4a 9a 38 21 1c 51 38 07 8a 5b 38
       5.72806e-05 7.357199e-05 4.985568e-05 5.2342217e-05
0000f0 b9 5b 6e 38 27 0b 83 38 7e 04 44 38 8c 13 9f 38
       5.6829045e-05 6.248644e-05 4.6734225e-05 7.585352e-05
000100 f9 b4 7e 38 62 aa ac 37 75 18 2e 38 22 77 48 38
       6.0726863e-05 2.0583338e-05 4.150761e-05 4.7794667e-05
000110 cb ed 46 38 69 0d b9 38 b3 0d 5a 38 12 b2 95 38
       4.742834e-05 8.823985e-05 5.198801e-05 7.138042e-05
000120 69 1f 69 37 e5 a4 82 38 5c 4c 79 38 a9 73 48 38
       1.38951955e-05 6.229597e-05 5.943734e-05 4.7791433e-05
000130 4c bb 5b 38 da ad 30 38 c5 c0 d6 37 58 89 a6 38
       5.2388103e-05 4.212358e-05 2.5600553e-05 7.941079e-05
000140 c8 9c 15 38 b6 a3 5c 38 02 11 7a 38 78 fc 51 38
       3.5670382e-05 5.2604555e-05 5.9620485e-05 5.0064613e-05
000150 48 12 35 38 dc 83 86 38 ed e0 73 38 7b 37 42 38
       4.317079e-05 6.414179e-05 5.8145193e-05 4.6304875e-05
000160 ea 33 76 38 ed a1 5d 38 db a9 75 38 51 52 8c 38
       5.869932e-05 5.284131e-05 5.8570742e-05 6.691053e-05
000170 39 37 61 38 21 69 6b 38 53 cb 6e 38 ae 38 24 38
       5.369561e-05 5.6126275e-05 5.6932982e-05 3.9153434e-05
000180 84 67 45 38 2f 77 20 38 cd d4 bb 37 5a 40 87 38
       4.7064867e-05 3.825797e-05 2.239123e-05 6.449288e-05
000190 63 b2 f1 37 fe 41 1e 38 7c bd 30 38 4e 7a 4d 38
       2.8812507e-05 3.7731596e-05 4.213814e-05 4.8989714e-05
0001a0 9c 8c 2a 38 ac dc 80 38 24 b7 4a 38 df 67 87 38
       4.066211e-05 6.144619e-05 4.8331116e-05 6.456649e-05
0001b0 94 40 16 38 08 eb a0 37 9f 77 99 38 08 92 9c 38
       3.582293e-05 1.9182931e-05 7.31789e-05 7.46586e-05
0001c0 06 b1 39 38 84 bf 7e 38 6d 1d 62 38 e3 03 5d 38
       4.4272303e-05 6.0736682e-05 5.3910004e-05 5.2694126e-05
0001d0 c6 5d 59 38 5c 79 4b 38 4c 91 c9 37 d8 3b 7a 38
       5.1824165e-05 4.8511996e-05 2.4028726e-05 5.966038e-05
0001e0 ba f4 04 38 f2 e6 55 38 6d 4c 3a 38 4a 2a 5e 38
       3.169917e-05 5.0998242e-05 4.4417033e-05 5.296831e-05
0001f0 64 e7 8c 38 ae 11 40 38 9d c2 05 38 38 52 4e 38
       6.71882e-05 4.5792833e-05 3.189092e-05 4.91908e-05
000200 43 5a ae 37 c9 fb 55 37 ca 42 13 38 6d c7 82 38
       2.0784448e-05 1.2754413e-05 3.5109733e-05 6.236029e-05
000210 c6 88 9a 37 83 cb 4a 38 a0 b5 99 37 23 0a 53 38
       1.842192e-05 4.8350088e-05 1.8323597e-05 5.031576e-05
000220 ae 20 62 38 b0 d3 58 38 be d9 22 38 0e c1 20 38
       5.3913034e-05 5.1695562e-05 3.8826598e-05 3.832677e-05
000230 fd 82 72 38 1c d3 42 38 ee d3 e1 37 ea ad 0d 38
       5.781929e-05 4.6449815e-05 2.6920778e-05 3.377899e-05
000240 82 10 4d 38 f9 48 3c 38 13 1d 7b 38 65 91 88 38
       4.8891183e-05 4.4890654e-05 5.987014e-05 6.512067e-05
000250 d6 2d a3 38 ae 50 3f 38 57 60 78 38 2c ee 5a 38
       7.780983e-05 4.5613087e-05 5.921753e-05 5.2197065e-05
000260 0a 89 2b 38 35 2e f5 37 19 ad 98 38 67 3d 02 38
       4.0897205e-05 2.9227793e-05 7.280167e-05 3.10516e-05
000270 d6 4c 70 38 de 36 3c 38 4b 0b 66 38 01 84 4e 38
       5.7292018e-05 4.4873792e-05 5.484679e-05 4.9237166e-05
000280 a4 37 27 38 25 b7 5c 38 25 fc 11 38 94 ea b7 37
       3.9867722e-05 5.2622654e-05 3.4805522e-05 2.1924534e-05
000290 19 22 9b 38 a3 4d e3 37 87 dd c0 37 d7 12 6b 38
       7.397327e-05 2.7096661e-05 2.299134e-05 5.6045912e-05
0002a0 2b 14 84 38 d4 b9 98 38 6d c1 49 38 2a ce 6d 38
       6.298007e-05 7.282538e-05 4.8102276e-05 5.669721e-05
0002b0 87 32 39 38 fe 58 4b 38 86 f5 25 38 58 33 2f 38
       4.4154494e-05 4.8481852e-05 3.9567727e-05 4.177107e-05
0002c0 24 f8 63 38 c5 d0 46 38 e6 53 67 38 01 ba 68 38
       5.4352116e-05 4.740131e-05 5.515283e-05 5.548634e-05
0002d0 e5 0a 59 37 f4 fc 5b 38 fa 1b 33 38 d7 33 6f 38
       1.29367445e-05 5.244925e-05 4.270298e-05 5.703032e-05
0002e0 14 90 80 38 7b 13 3b 38 01 01 96 38 19 80 3e 37
       6.130352e-05 4.4602417e-05 7.1527444e-05 1.1354708e-05
0002f0 86 96 1d 38 a4 00 46 38 3f e1 67 38 44 e1 2d 38
       3.7571903e-05 4.7207475e-05 5.528447e-05 4.145621e-05
000300 4d 35 40 38 85 8f 5a 38 c3 b6 15 38 b2 37 21 38
       4.5826007e-05 5.2108913e-05 3.569458e-05 3.843726e-05
000310 0d 93 85 38 f8 30 31 38 dd f4 29 38 50 78 79 38
       6.3693245e-05 4.2245694e-05 4.0520787e-05 5.9478276e-05
000320 48 7a 56 38 86 9b 87 38 8d a0 45 38 7c b9 c4 38
       5.113546e-05 6.46627e-05 4.7117985e-05 9.3805575e-05
000330 8d b3 86 38 b2 9b ab 37 3a 8c 59 38 5c 98 7d 38
       6.423062e-05 2.045729e-05 5.1867428e-05 6.0461796e-05
000340 3c f1 6f 38 a6 79 79 38 4b ee 56 38 bd b2 2e 38
       5.7206707e-05 5.947952e-05 5.1243504e-05 4.1651296e-05
000350 0b 39 20 38 c9 a6 01 38 2d d9 6f 37 61 38 92 37
       3.8200098e-05 3.0911327e-05 1.4296075e-05 1.743081e-05
000360 85 6f 88 37 51 70 2a 38 48 3f 7f 38 05 aa 95 38
       1.6264394e-05 4.063576e-05 6.0855673e-05 7.136542e-05
000370 28 d7 14 38 d1 a2 82 38 11 aa 82 38 ac 0a 84 38
       3.548633e-05 6.22921e-05 6.2305604e-05 6.296238e-05
000380 1f 49 1c 38 34 cd 3f 38 9a 0f 8b 38 65 ae 69 38
       3.7261398e-05 4.572906e-05 6.6309425e-05 5.5713946e-05
000390 5b 49 4c 38 71 6a 3b 38 5a 14 76 38 0c d0 04 38
       4.8705708e-05 4.4683406e-05 5.8669924e-05 3.166501e-05
0003a0 53 cb 47 38 5a 5f 50 38 1b a2 1e 38 9c 6a 30 38
       4.7634658e-05 4.9679868e-05 3.7821108e-05 4.2060958e-05
0003b0 69 b3 80 38 27 ef 37 38 32 73 38 38 52 eb 73 38
       6.1369334e-05 4.3853328e-05 4.3976303e-05 5.8154874e-05
0003c0 44 e4 e3 37 b0 c2 84 38 e1 17 8b 38 f8 d9 dd 37
       2.7166803e-05 6.330514e-05 6.632484e-05 2.6446753e-05
0003d0 83 a8 78 38 b9 0d ef 37 77 ba 45 38 0c 3b 63 38
       5.9284746e-05 2.849741e-05 4.714212e-05 5.417601e-05
0003e0 66 0d a5 37 4e 0c f9 37 8b 51 76 38 f2 f5 2d 38
       1.9675772e-05 2.9688843e-05 5.8726913e-05 4.147547e-05
0003f0 71 e4 3e 38 09 05 7a 37 4d ed bd 37 e7 09 12 38
       4.5512283e-05 1.49023335e-05 2.2641058e-05 3.4818335e-05

exp_avg f4 [10]
000000 02 62 82 3b c6 96 29 bb 55 b4 93 ba ab 56 bb ba
       0.0039789686 -0.0025877221 -0.0011268953 -0.0014292797
000010 f1 e3 25 bb 16 43 ab 3a 77 b4 8f bb 66 3c 12 3b
       -0.0025312866 0.0013066258 -0.0043855268 0.0022313832
000020 28 18 34 3b 48 1a e5 3a
       0.0027480219 0.0017479146

exp_avg_sq f4 [10]
000000 b8 44 19 39 59 fe 3c 39 32 57 e6 38 7a fb 34 39
       0.00014616817 0.00018023829 0.00010983496 0.0001725982
000010 e9 0c 27 39 49 f6 9e 38 77 c5 95 38 2a af 2b 38
       0.0001593117 7.579901e-05 7.141654e-05 4.093271e-05
000020 71 8b 31 38 0d 1d 47 38
       4.2329953e-05 4.7472353e-05
